
number of params: 5160192 
Namespace(batchsize=128, beta=0.25, dec_dropout_in=0.2, dec_dropout_out=0.3, dec_nh=512, device='cuda', embedding_dim=512, enc_dropout_in=0.0, enc_dropout_out=0.0, enc_nh=512, epochs=120, fig_path='model/vqvae/results/training/10000_instances/120epochs.png', log_path='model/vqvae/results/training/10000_instances/120epochs.log', logger=<common.utils.Logger object at 0x7ff960a49c10>, lr=0.001, maxtrnsize=100000, maxtstsize=10000, maxvalsize=10000, mname='vqvae', model=VQVAE(
  (encoder): VQVAE_Encoder(
    (embed): Embedding(35, 256)
    (lstm): LSTM(256, 512, batch_first=True)
    (dropout_in): Dropout(p=0.0, inplace=False)
  )
  (linear_root): Linear(in_features=512, out_features=320, bias=True)
  (vq_layer_root): VectorQuantizer(
    (embedding): Embedding(2000, 320)
  )
  (ord_linears): ModuleList(
    (0): Linear(in_features=512, out_features=32, bias=True)
    (1): Linear(in_features=512, out_features=32, bias=True)
    (2): Linear(in_features=512, out_features=32, bias=True)
    (3): Linear(in_features=512, out_features=32, bias=True)
    (4): Linear(in_features=512, out_features=32, bias=True)
    (5): Linear(in_features=512, out_features=32, bias=True)
  )
  (ord_vq_layers): ModuleList(
    (0): VectorQuantizer(
      (embedding): Embedding(100, 32)
    )
    (1): VectorQuantizer(
      (embedding): Embedding(100, 32)
    )
    (2): VectorQuantizer(
      (embedding): Embedding(100, 32)
    )
    (3): VectorQuantizer(
      (embedding): Embedding(100, 32)
    )
    (4): VectorQuantizer(
      (embedding): Embedding(100, 32)
    )
    (5): VectorQuantizer(
      (embedding): Embedding(100, 32)
    )
  )
  (decoder): VQVAE_Decoder(
    (embed): Embedding(35, 256, padding_idx=0)
    (dropout_in): Dropout(p=0.2, inplace=False)
    (dropout_out): Dropout(p=0.3, inplace=False)
    (lstm): LSTM(768, 512, batch_first=True)
    (pred_linear): Linear(in_features=512, out_features=35, bias=False)
    (loss): CrossEntropyLoss()
  )
), modelname='model/vqvae/results/training/10000_instances/', ni=256, num_dicts=7, nz=512, opt='Adam', orddict_emb_num=100, pretrained_model=VQVAE(
  (encoder): VQVAE_Encoder(
    (embed): Embedding(35, 256)
    (lstm): LSTM(256, 512, batch_first=True)
    (dropout_in): Dropout(p=0.0, inplace=False)
  )
  (linear_root): Linear(in_features=512, out_features=320, bias=True)
  (vq_layer_root): VectorQuantizer(
    (embedding): Embedding(2000, 320)
  )
  (ord_linears): ModuleList(
    (0): Linear(in_features=512, out_features=32, bias=True)
    (1): Linear(in_features=512, out_features=32, bias=True)
    (2): Linear(in_features=512, out_features=32, bias=True)
    (3): Linear(in_features=512, out_features=32, bias=True)
    (4): Linear(in_features=512, out_features=32, bias=True)
    (5): Linear(in_features=512, out_features=32, bias=True)
  )
  (ord_vq_layers): ModuleList(
    (0): VectorQuantizer(
      (embedding): Embedding(100, 32)
    )
    (1): VectorQuantizer(
      (embedding): Embedding(100, 32)
    )
    (2): VectorQuantizer(
      (embedding): Embedding(100, 32)
    )
    (3): VectorQuantizer(
      (embedding): Embedding(100, 32)
    )
    (4): VectorQuantizer(
      (embedding): Embedding(100, 32)
    )
    (5): VectorQuantizer(
      (embedding): Embedding(100, 32)
    )
  )
  (decoder): VQVAE_Decoder(
    (embed): Embedding(35, 256, padding_idx=0)
    (dropout_in): Dropout(p=0.2, inplace=False)
    (dropout_out): Dropout(p=0.3, inplace=False)
    (lstm): LSTM(768, 512, batch_first=True)
    (pred_linear): Linear(in_features=512, out_features=35, bias=False)
    (loss): CrossEntropyLoss()
  )
), rootdict_emb_dim=320, rootdict_emb_num=2000, save_path='model/vqvae/results/training/10000_instances/120epochs.pt', seq_to_no_pad='surface', surf_vocab=<common.vocab.VocabEntry object at 0x7ff960ae8590>, surface_vocab_file='model/vqvae/data/trmor2018.uniquesurfs.verbs.uniquerooted.trn.txt', task='vqvae', trndata='model/vqvae/data/trmor2018.uniquesurfs.verbs.uniquerooted.trn.txt', trnsize=10000, tstdata='model/vqvae/data/trmor2018.uniquesurfs.verbs.seenroots.val.txt', tstsize=10000, valdata='model/vqvae/data/trmor2018.uniquesurfs.verbs.seenroots.val.txt', valsize=3000)
…
