
number of params: 7923712 
Namespace(batchsize=128, beta=0.25, dec_dropout_in=0.0, dec_dropout_out=0.0, dec_nh=512, device='cuda', embedding_dim=512, enc_dropout_in=0.0, enc_dropout_out=0.0, enc_nh=512, epochs=250, fig_path='model/vqvae/results/training/10000_instances/250epochs.png', log_path='model/vqvae/results/training/10000_instances/250epochs.log', logger=<common.utils.Logger object at 0x7f5e58ff36d0>, lr=0.001, maxtrnsize=100000, maxtstsize=10000, maxvalsize=10000, mname='vqvae', model=VQVAE(
  (encoder): VQVAE_Encoder(
    (embed): Embedding(35, 256)
    (lstm): LSTM(256, 512, batch_first=True)
    (dropout_in): Dropout(p=0.0, inplace=False)
  )
  (vq_layer): VectorQuantizer(
    (embedding): Embedding(2500, 512)
  )
  (linear_2): Linear(in_features=512, out_features=512, bias=False)
  (linear_3): Linear(in_features=512, out_features=512, bias=False)
  (linear_4): Linear(in_features=512, out_features=512, bias=False)
  (linear_5): Linear(in_features=512, out_features=512, bias=False)
  (linear_6): Linear(in_features=512, out_features=512, bias=False)
  (linear_7): Linear(in_features=512, out_features=512, bias=False)
  (linear_8): Linear(in_features=512, out_features=512, bias=False)
  (linear_9): Linear(in_features=512, out_features=512, bias=False)
  (linear_10): Linear(in_features=512, out_features=512, bias=False)
  (vq_layer_2): VectorQuantizer(
    (embedding): Embedding(10, 512)
  )
  (vq_layer_3): VectorQuantizer(
    (embedding): Embedding(10, 512)
  )
  (vq_layer_4): VectorQuantizer(
    (embedding): Embedding(10, 512)
  )
  (vq_layer_5): VectorQuantizer(
    (embedding): Embedding(10, 512)
  )
  (vq_layer_6): VectorQuantizer(
    (embedding): Embedding(10, 512)
  )
  (vq_layer_7): VectorQuantizer(
    (embedding): Embedding(10, 512)
  )
  (vq_layer_8): VectorQuantizer(
    (embedding): Embedding(10, 512)
  )
  (vq_layer_9): VectorQuantizer(
    (embedding): Embedding(10, 512)
  )
  (vq_layer_10): VectorQuantizer(
    (embedding): Embedding(10, 512)
  )
  (decoder): VQVAE_Decoder(
    (embed): Embedding(35, 256, padding_idx=0)
    (dropout_in): Dropout(p=0.0, inplace=False)
    (dropout_out): Dropout(p=0.0, inplace=False)
    (lstm): LSTM(768, 512, batch_first=True)
    (pred_linear): Linear(in_features=512, out_features=35, bias=False)
    (loss): CrossEntropyLoss()
  )
), modelname='model/vqvae/results/training/10000_instances/', ni=256, num_embeddings=2500, nz=512, opt='Adam', pretrained_model=VQVAE(
  (encoder): VQVAE_Encoder(
    (embed): Embedding(35, 256)
    (lstm): LSTM(256, 512, batch_first=True)
    (dropout_in): Dropout(p=0.0, inplace=False)
  )
  (vq_layer): VectorQuantizer(
    (embedding): None
  )
  (linear_2): Linear(in_features=512, out_features=512, bias=False)
  (linear_3): Linear(in_features=512, out_features=512, bias=False)
  (linear_4): Linear(in_features=512, out_features=512, bias=False)
  (linear_5): Linear(in_features=512, out_features=512, bias=False)
  (linear_6): Linear(in_features=512, out_features=512, bias=False)
  (linear_7): Linear(in_features=512, out_features=512, bias=False)
  (linear_8): Linear(in_features=512, out_features=512, bias=False)
  (linear_9): Linear(in_features=512, out_features=512, bias=False)
  (linear_10): Linear(in_features=512, out_features=512, bias=False)
  (vq_layer_2): VectorQuantizer(
    (embedding): None
  )
  (vq_layer_3): VectorQuantizer(
    (embedding): Embedding(10, 512)
  )
  (vq_layer_4): VectorQuantizer(
    (embedding): Embedding(10, 512)
  )
  (vq_layer_5): VectorQuantizer(
    (embedding): Embedding(10, 512)
  )
  (vq_layer_6): VectorQuantizer(
    (embedding): Embedding(10, 512)
  )
  (vq_layer_7): VectorQuantizer(
    (embedding): Embedding(10, 512)
  )
  (vq_layer_8): VectorQuantizer(
    (embedding): Embedding(10, 512)
  )
  (vq_layer_9): VectorQuantizer(
    (embedding): Embedding(10, 512)
  )
  (vq_layer_10): VectorQuantizer(
    (embedding): Embedding(10, 512)
  )
  (decoder): VQVAE_Decoder(
    (embed): Embedding(35, 256, padding_idx=0)
    (dropout_in): Dropout(p=0.0, inplace=False)
    (dropout_out): Dropout(p=0.0, inplace=False)
    (lstm): LSTM(768, 512, batch_first=True)
    (pred_linear): Linear(in_features=512, out_features=35, bias=False)
    (loss): CrossEntropyLoss()
  )
), save_path='model/vqvae/results/training/10000_instances/250epochs.pt', seq_to_no_pad='surface', surf_vocab=<common.vocab.VocabEntry object at 0x7f5e58f8a750>, surface_vocab_file='model/vqvae/data/trmor2018.uniquesurfs.verbs.uniquerooted.trn.txt', task='vqvae', trndata='model/vqvae/data/trmor2018.uniquesurfs.verbs.uniquerooted.trn.txt', trnsize=10000, tstdata='model/vqvae/data/trmor2018.uniquesurfs.verbs.seenroots.val.txt', tstsize=10000, valdata='model/vqvae/data/trmor2018.uniquesurfs.verbs.seenroots.val.txt', valsize=3000)
…
