
number of params: 9675776 
Namespace(batchsize=128, beta=0.25, dec_dropout_in=0.0, dec_dropout_out=0.0, dec_nh=512, device='cuda', embedding_dim=512, enc_dropout_in=0.0, enc_dropout_out=0.0, enc_nh=512, epochs=250, fig_path='model/vqvae/results/training/20000_instances/250epochs.png', log_path='model/vqvae/results/training/20000_instances/250epochs.log', logger=<common.utils.Logger object at 0x7f49ab30f710>, lr=0.001, maxtrnsize=100000, maxtstsize=10000, maxvalsize=10000, mname='vqvae', model=VQVAE(
  (encoder): VQVAE_Encoder(
    (embed): Embedding(39, 256)
    (lstm): LSTM(256, 512, batch_first=True)
    (dropout_in): Dropout(p=0.0, inplace=False)
  )
  (vq_layer): VectorQuantizer(
    (embedding): Embedding(10000, 512)
  )
  (linear_2): Linear(in_features=512, out_features=512, bias=False)
  (vq_layer_2): VectorQuantizer(
    (embedding): Embedding(100, 512)
  )
  (decoder): VQVAE_Decoder(
    (embed): Embedding(39, 256, padding_idx=0)
    (dropout_in): Dropout(p=0.0, inplace=False)
    (dropout_out): Dropout(p=0.0, inplace=False)
    (lstm): LSTM(768, 512, batch_first=True)
    (pred_linear): Linear(in_features=512, out_features=39, bias=False)
    (loss): CrossEntropyLoss()
  )
), modelname='model/vqvae/results/training/20000_instances/', ni=256, num_embeddings=10000, nz=512, opt='Adam', pretrained_model=VQVAE(
  (encoder): VQVAE_Encoder(
    (embed): Embedding(39, 256)
    (lstm): LSTM(256, 512, batch_first=True)
    (dropout_in): Dropout(p=0.0, inplace=False)
  )
  (vq_layer): VectorQuantizer(
    (embedding): Embedding(10000, 512)
  )
  (linear_2): Linear(in_features=512, out_features=512, bias=False)
  (vq_layer_2): VectorQuantizer(
    (embedding): None
  )
  (decoder): VQVAE_Decoder(
    (embed): Embedding(39, 256, padding_idx=0)
    (dropout_in): Dropout(p=0.0, inplace=False)
    (dropout_out): Dropout(p=0.0, inplace=False)
    (lstm): LSTM(768, 512, batch_first=True)
    (pred_linear): Linear(in_features=512, out_features=39, bias=False)
    (loss): CrossEntropyLoss()
  )
), save_path='model/vqvae/results/training/20000_instances/250epochs.pt', seq_to_no_pad='surface', surf_vocab=<common.vocab.VocabEntry object at 0x7f49ab2533d0>, surface_vocab_file='model/vqvae/data/trmor2018.uniquesurfs.nouns.uniquerooted.trn.txt', task='vqvae', trndata='model/vqvae/data/trmor2018.uniquesurfs.nouns.uniquerooted.trn.txt', trnsize=20000, tstdata='model/vqvae/data/trmor2018.uniquesurfs.nouns.seenrots.val.txt', tstsize=20000, valdata='model/vqvae/data/trmor2018.uniquesurfs.nouns.seenrots.val.txt', valsize=3000)
…
