…
Namespace(batchsize=128, beta=0.5, bidirectional=True, dec_dropout_in=0.5, dec_dropout_out=0.5, dec_nh=128, dec_nh_tmp=128, device='cuda', embedding_dim=512, enc_dropout_in=0.0, enc_dropout_out=0.0, enc_nh=512, epochs=200, fig_path='model/vqvae/results/training/28794_instances/bi_kl0.1_8x4_dec128_suffixd512/200epochs.png', incat=512, incat_tmp=512, log_path='model/vqvae/results/training/28794_instances/bi_kl0.1_8x4_dec128_suffixd512/200epochs.log', logger=<common.utils.Logger object at 0x7f0067bb5390>, lr=0.001, maxtrnsize=10000000, maxtstsize=10000, maxvalsize=10000, mname='vqvae', model=VQVAE(
  (encoder): VQVAE_Encoder(
    (embed): Embedding(36, 256)
    (lstm): LSTM(256, 512, batch_first=True, bidirectional=True)
    (dropout_in): Dropout(p=0.0, inplace=False)
    (linear): Linear(in_features=512, out_features=256, bias=False)
  )
  (ord_vq_layers): ModuleList(
    (0): VectorQuantizer(
      (embedding): Embedding(4, 64)
    )
    (1): VectorQuantizer(
      (embedding): Embedding(4, 64)
    )
    (2): VectorQuantizer(
      (embedding): Embedding(4, 64)
    )
    (3): VectorQuantizer(
      (embedding): Embedding(4, 64)
    )
    (4): VectorQuantizer(
      (embedding): Embedding(4, 64)
    )
    (5): VectorQuantizer(
      (embedding): Embedding(4, 64)
    )
    (6): VectorQuantizer(
      (embedding): Embedding(4, 64)
    )
    (7): VectorQuantizer(
      (embedding): Embedding(4, 64)
    )
  )
  (decoder): VQVAE_Decoder(
    (embed): Embedding(36, 256, padding_idx=0)
    (dropout_in): Dropout(p=0.5, inplace=False)
    (dropout_out): Dropout(p=0.5, inplace=False)
    (lstm): LSTM(768, 128, batch_first=True)
    (pred_linear): Linear(in_features=128, out_features=36, bias=False)
    (loss): CrossEntropyLoss()
  )
), model_prefix='bi_kl0.1_8x4_dec128_suffixd512/', modelname='model/vqvae/results/training/28794_instances/bi_kl0.1_8x4_dec128_suffixd512/', ni=256, num_dicts=8, num_dicts_tmp=8, nz=128, opt='Adam', orddict_emb_num=4, outcat=0, outcat_tmp=0, pretrained_model=VQVAE_AE(
  (encoder): VQVAE_Encoder(
    (embed): Embedding(36, 256)
    (lstm): LSTM(256, 512, batch_first=True, bidirectional=True)
    (dropout_in): Dropout(p=0.0, inplace=False)
  )
  (decoder): VQVAE_Decoder(
    (embed): Embedding(36, 256, padding_idx=0)
    (dropout_in): Dropout(p=0.5, inplace=False)
    (dropout_out): Dropout(p=0.5, inplace=False)
    (lstm): LSTM(256, 1024, batch_first=True)
    (pred_linear): Linear(in_features=1024, out_features=36, bias=False)
    (loss): CrossEntropyLoss()
  )
), root_linear_h=128, save_path='model/vqvae/results/training/28794_instances/bi_kl0.1_8x4_dec128_suffixd512/200epochs.pt', seq_to_no_pad='surface', surf_vocab=<common.vocab.VocabEntry object at 0x7f004dc6e4d0>, surface_vocab_file='data/sigmorphon2016/zhou_merged', task='vqvae', trndata='data/sigmorphon2016/zhou_merged', trnsize=28794, tstdata='data/sigmorphon2016/turkish-task3-dev', tstsize=28794, valdata='data/sigmorphon2016/turkish-task3-dev', valsize=1589)
…
