TRN:
surf_data:12229
tag_data:11
entry_data:12229seq not to pad: surface, continuity: FalseVAL:
surf_data:1590
tag_data:11
entry_data:1590seq not to pad: surface, continuity: FalseTST:
surf_data:1590
tag_data:11
entry_data:1590seq not to pad: , continuity: Truecase:7polar:3mood:2evid:2pos:3per:4num:3tense:4aspect:5inter:2poss:7VQVAE(
  (encoder): VQVAE_Encoder(
    (embed): Embedding(36, 256)
    (lstm): LSTM(256, 512, batch_first=True, bidirectional=True)
    (dropout_in): Dropout(p=0.0, inplace=False)
  )
  (vq_layer_lemma): VectorQuantizer(
    (embedding): Embedding(5000, 512)
  )
  (ord_vq_layers): ModuleList(
    (0): VectorQuantizer(
      (embedding): Embedding(6, 64)
    )
    (1): VectorQuantizer(
      (embedding): Embedding(6, 64)
    )
    (2): VectorQuantizer(
      (embedding): Embedding(6, 64)
    )
    (3): VectorQuantizer(
      (embedding): Embedding(6, 64)
    )
    (4): VectorQuantizer(
      (embedding): Embedding(6, 64)
    )
    (5): VectorQuantizer(
      (embedding): Embedding(6, 64)
    )
    (6): VectorQuantizer(
      (embedding): Embedding(6, 64)
    )
    (7): VectorQuantizer(
      (embedding): Embedding(6, 64)
    )
  )
  (decoder): VQVAE_Decoder(
    (embed): Embedding(36, 256, padding_idx=0)
    (dropout_in): Dropout(p=0.0, inplace=False)
    (dropout_out): Dropout(p=0.0, inplace=False)
    (lstm): LSTM(768, 512, batch_first=True)
    (pred_linear): Linear(in_features=512, out_features=36, bias=False)
    (loss): CrossEntropyLoss()
  )
)Tagmapper(
  (linears): ModuleList(
    (0): Embedding(7, 100)
    (1): Embedding(3, 100)
    (2): Embedding(2, 100)
    (3): Embedding(2, 100)
    (4): Embedding(3, 100)
    (5): Embedding(4, 100)
    (6): Embedding(3, 100)
    (7): Embedding(4, 100)
    (8): Embedding(5, 100)
    (9): Embedding(2, 100)
    (10): Embedding(7, 100)
  )
  (entries): ModuleList(
    (0): Linear(in_features=200, out_features=6, bias=True)
  )
  (hidden_common): Linear(in_features=1612, out_features=500, bias=True)
  (hidden_2): Linear(in_features=500, out_features=350, bias=True)
  (hidden_3): Linear(in_features=350, out_features=200, bias=True)
  (dropout): Dropout(p=0.3, inplace=False)
)
linears.0.weight, torch.Size([7, 100]): True
linears.1.weight, torch.Size([3, 100]): True
linears.2.weight, torch.Size([2, 100]): True
linears.3.weight, torch.Size([2, 100]): True
linears.4.weight, torch.Size([3, 100]): True
linears.5.weight, torch.Size([4, 100]): True
linears.6.weight, torch.Size([3, 100]): True
…
