TRN:surf_data:994tag_data:11entry_data:994seq not to pad: surface, continuity: FalseVAL:surf_data:1590tag_data:11entry_data:1590seq not to pad: surface, continuity: FalseTST:surf_data:1590tag_data:11entry_data:1590seq not to pad: , continuity: Truecase:7polar:3mood:2evid:2pos:3per:4num:3tense:4aspect:5inter:2poss:7VQVAE(
  (encoder): VQVAE_Encoder(
    (embed): Embedding(36, 256)
    (lstm): LSTM(256, 512, batch_first=True)
    (dropout_in): Dropout(p=0.0, inplace=False)
    (linear): Linear(in_features=512, out_features=256, bias=False)
  )
  (ord_vq_layers): ModuleList(
    (0): VectorQuantizer(
      (embedding): Embedding(6, 64)
    )
    (1): VectorQuantizer(
      (embedding): Embedding(6, 64)
    )
    (2): VectorQuantizer(
      (embedding): Embedding(6, 64)
    )
    (3): VectorQuantizer(
      (embedding): Embedding(6, 64)
    )
    (4): VectorQuantizer(
      (embedding): Embedding(6, 64)
    )
    (5): VectorQuantizer(
      (embedding): Embedding(6, 64)
    )
    (6): VectorQuantizer(
      (embedding): Embedding(6, 64)
    )
    (7): VectorQuantizer(
      (embedding): Embedding(6, 64)
    )
  )
  (decoder): VQVAE_Decoder(
    (embed): Embedding(36, 256, padding_idx=0)
    (dropout_in): Dropout(p=0.0, inplace=False)
    (dropout_out): Dropout(p=0.0, inplace=False)
    (lstm): LSTM(768, 128, batch_first=True)
    (pred_linear): Linear(in_features=128, out_features=36, bias=False)
    (loss): CrossEntropyLoss()
  )
)Tagmapper(
  (linears): ModuleList(
    (0): Embedding(7, 100)
    (1): Embedding(3, 100)
    (2): Embedding(2, 100)
    (3): Embedding(2, 100)
    (4): Embedding(3, 100)
    (5): Embedding(4, 100)
    (6): Embedding(3, 100)
    (7): Embedding(4, 100)
    (8): Embedding(5, 100)
    (9): Embedding(2, 100)
    (10): Embedding(7, 100)
  )
  (hidden_common): Linear(in_features=1228, out_features=500, bias=True)
  (hidden_2): Linear(in_features=500, out_features=300, bias=True)
  (dropout): Dropout(p=0.0, inplace=False)
  (entry_1): Linear(in_features=300, out_features=6, bias=True)
  (entry_2): Linear(in_features=300, out_features=6, bias=True)
  (entry_3): Linear(in_features=300, out_features=6, bias=True)
  (entry_4): Linear(in_features=300, out_features=6, bias=True)
  (entry_5): Linear(in_features=300, out_features=6, bias=True)
  (entry_6): Linear(in_features=300, out_features=6, bias=True)
  (entry_7): Linear(in_features=300, out_features=6, bias=True)
  (entry_8): Linear(in_features=300, out_features=6, bias=True)
)
linears.0.weight, torch.Size([7, 100]): True
linears.1.weight, torch.Size([3, 100]): True
linears.2.weight, torch.Size([2, 100]): True
linears.3.weight, torch.Size([2, 100]): True
linears.4.weight, torch.Size([3, 100]): True
linears.5.weight, torch.Size([4, 100]): True
linears.6.weight, torch.Size([3, 100]): True
linears.7.weight, torch.Size([4, 100]): True
…
