…
number of params: 3072 
Namespace(batchsize=128, beta=0.25, dec_dropout_in=0.0, dec_dropout_out=0.0, dec_nh=512, device='cuda', embedding_dim=512, enc_dropout_in=0.0, enc_dropout_out=0.0, enc_nh=512, epochs=100, fig_path='evaluation/probing/tense/results/training/mvqvae_101_probe/3487_instances/100epochs.png', log_path='evaluation/probing/tense/results/training/mvqvae_101_probe/3487_instances/100epochs.log', logger=<common.utils.Logger object at 0x7f7ef4518690>, lr=0.001, maxtrnsize=57769, maxtstsize=10000, maxvalsize=10000, mname='mvqvae_101_probe', model=VQVAE_Probe(
  (encoder): VQVAE_Encoder(
    (embed): Embedding(32, 256)
    (lstm): LSTM(256, 512, batch_first=True)
    (dropout_in): Dropout(p=0.0, inplace=False)
  )
  (linear_2): Linear(in_features=512, out_features=512, bias=True)
  (linear_3): Linear(in_features=512, out_features=512, bias=True)
  (linear_4): Linear(in_features=512, out_features=512, bias=True)
  (linear_5): Linear(in_features=512, out_features=512, bias=True)
  (linear_6): Linear(in_features=512, out_features=512, bias=True)
  (linear_7): Linear(in_features=512, out_features=512, bias=True)
  (linear_8): Linear(in_features=512, out_features=512, bias=True)
  (linear_9): Linear(in_features=512, out_features=512, bias=True)
  (linear_10): Linear(in_features=512, out_features=512, bias=True)
  (vq_layer): VectorQuantizer(
    (embedding): Embedding(704, 512)
  )
  (vq_layer_2): VectorQuantizer(
    (embedding): Embedding(16, 512)
  )
  (vq_layer_3): VectorQuantizer(
    (embedding): Embedding(16, 512)
  )
  (vq_layer_4): VectorQuantizer(
    (embedding): Embedding(16, 512)
  )
  (vq_layer_5): VectorQuantizer(
    (embedding): Embedding(16, 512)
  )
  (vq_layer_6): VectorQuantizer(
    (embedding): Embedding(16, 512)
  )
  (vq_layer_7): VectorQuantizer(
    (embedding): Embedding(16, 512)
  )
  (vq_layer_8): VectorQuantizer(
    (embedding): Embedding(16, 512)
  )
  (vq_layer_9): VectorQuantizer(
    (embedding): Embedding(16, 512)
  )
  (vq_layer_10): VectorQuantizer(
    (embedding): Embedding(16, 512)
  )
  (linear): Linear(in_features=512, out_features=6, bias=False)
  (loss): CrossEntropyLoss()
), modelname='evaluation/probing/tense/results/training/mvqvae_101_probe/3487_instances/', nh=512, ni=256, num_embeddings=704, nz=512, opt='Adam', pretrained_model=VQVAE(
  (encoder): VQVAE_Encoder(
    (embed): Embedding(32, 256)
    (lstm): LSTM(256, 512, batch_first=True)
    (dropout_in): Dropout(p=0.0, inplace=False)
  )
  (vq_layer): VectorQuantizer(
    (embedding): Embedding(704, 512)
  )
  (linear_2): Linear(in_features=512, out_features=512, bias=True)
  (linear_3): Linear(in_features=512, out_features=512, bias=True)
  (linear_4): Linear(in_features=512, out_features=512, bias=True)
  (linear_5): Linear(in_features=512, out_features=512, bias=True)
  (linear_6): Linear(in_features=512, out_features=512, bias=True)
  (linear_7): Linear(in_features=512, out_features=512, bias=True)
  (linear_8): Linear(in_features=512, out_features=512, bias=True)
  (linear_9): Linear(in_features=512, out_features=512, bias=True)
  (linear_10): Linear(in_features=512, out_features=512, bias=True)
  (vq_layer_2): VectorQuantizer(
    (embedding): Embedding(16, 512)
  )
  (vq_layer_3): VectorQuantizer(
    (embedding): Embedding(16, 512)
  )
  (vq_layer_4): VectorQuantizer(
    (embedding): Embedding(16, 512)
  )
  (vq_layer_5): VectorQuantizer(
    (embedding): Embedding(16, 512)
  )
  (vq_layer_6): VectorQuantizer(
    (embedding): Embedding(16, 512)
  )
  (vq_layer_7): VectorQuantizer(
    (embedding): Embedding(16, 512)
  )
  (vq_layer_8): VectorQuantizer(
    (embedding): Embedding(16, 512)
  )
  (vq_layer_9): VectorQuantizer(
    (embedding): Embedding(16, 512)
  )
  (vq_layer_10): VectorQuantizer(
    (embedding): Embedding(16, 512)
  )
  (decoder): VQVAE_Decoder(
    (embed): Embedding(32, 256, padding_idx=0)
    (dropout_in): Dropout(p=0.0, inplace=False)
    (dropout_out): Dropout(p=0.0, inplace=False)
    (lstm): LSTM(768, 512, batch_first=True)
    (pred_linear): Linear(in_features=512, out_features=32, bias=False)
    (loss): CrossEntropyLoss()
  )
), save_path='evaluation/probing/tense/results/training/mvqvae_101_probe/3487_instances/100epochs.pt', seq_to_no_pad='surface', task='surf2tense', trndata='evaluation/probing/tense/data/sosimple.new.trn.combined.txt', trnsize=3487, tstdata='evaluation/probing/tense/data/sosimple.new.seenroots.val.txt', tstsize=209, valdata='evaluation/probing/tense/data/sosimple.new.seenroots.val.txt', valsize=209)
…
