…
number of params: 1539 
Namespace(batchsize=512, beta=0.25, dec_dropout_in=0.0, dec_dropout_out=0.0, dec_nh=512, device='cuda', embedding_dim=512, enc_dropout_in=0.0, enc_dropout_out=0.0, enc_nh=512, epochs=300, fig_path='evaluation/probing/polarity/results/training/vqvae_7_2_probe/8513_instances/300epochs.png', log_path='evaluation/probing/polarity/results/training/vqvae_7_2_probe/8513_instances/300epochs.log', logger=<common.utils.Logger object at 0x7f99d3fab790>, lr=0.01, maxtrnsize=57769, maxtstsize=10000, maxvalsize=10000, mname='vqvae_7_2_probe', model=VQVAE_Probe(
  (encoder): VQVAE_Encoder(
    (embed): Embedding(35, 256)
    (lstm): LSTM(256, 512, batch_first=True)
    (dropout_in): Dropout(p=0.0, inplace=False)
  )
  (linear_root): Linear(in_features=512, out_features=320, bias=True)
  (vq_layer_root): VectorQuantizer(
    (embedding): Embedding(2000, 320)
  )
  (ord_linears): ModuleList(
    (0): Linear(in_features=512, out_features=32, bias=True)
    (1): Linear(in_features=512, out_features=32, bias=True)
    (2): Linear(in_features=512, out_features=32, bias=True)
    (3): Linear(in_features=512, out_features=32, bias=True)
    (4): Linear(in_features=512, out_features=32, bias=True)
    (5): Linear(in_features=512, out_features=32, bias=True)
  )
  (ord_vq_layers): ModuleList(
    (0): VectorQuantizer(
      (embedding): Embedding(100, 32)
    )
    (1): VectorQuantizer(
      (embedding): Embedding(100, 32)
    )
    (2): VectorQuantizer(
      (embedding): Embedding(100, 32)
    )
    (3): VectorQuantizer(
      (embedding): Embedding(100, 32)
    )
    (4): VectorQuantizer(
      (embedding): Embedding(100, 32)
    )
    (5): VectorQuantizer(
      (embedding): Embedding(100, 32)
    )
  )
  (linear): Linear(in_features=512, out_features=3, bias=True)
  (loss): CrossEntropyLoss()
), modelname='evaluation/probing/polarity/results/training/vqvae_7_2_probe/8513_instances/', nh=512, ni=256, num_dicts=7, nz=512, opt='Adam', orddict_emb_num=100, pretrained_model=VQVAE(
  (encoder): VQVAE_Encoder(
    (embed): Embedding(35, 256)
    (lstm): LSTM(256, 512, batch_first=True)
    (dropout_in): Dropout(p=0.0, inplace=False)
  )
  (linear_root): Linear(in_features=512, out_features=320, bias=True)
  (vq_layer_root): VectorQuantizer(
    (embedding): Embedding(2000, 320)
  )
  (ord_linears): ModuleList(
    (0): Linear(in_features=512, out_features=32, bias=True)
    (1): Linear(in_features=512, out_features=32, bias=True)
    (2): Linear(in_features=512, out_features=32, bias=True)
    (3): Linear(in_features=512, out_features=32, bias=True)
    (4): Linear(in_features=512, out_features=32, bias=True)
    (5): Linear(in_features=512, out_features=32, bias=True)
  )
  (ord_vq_layers): ModuleList(
    (0): VectorQuantizer(
      (embedding): Embedding(100, 32)
    )
    (1): VectorQuantizer(
      (embedding): Embedding(100, 32)
    )
    (2): VectorQuantizer(
      (embedding): Embedding(100, 32)
    )
    (3): VectorQuantizer(
      (embedding): Embedding(100, 32)
    )
    (4): VectorQuantizer(
      (embedding): Embedding(100, 32)
    )
    (5): VectorQuantizer(
      (embedding): Embedding(100, 32)
    )
  )
  (decoder): VQVAE_Decoder(
    (embed): Embedding(35, 256, padding_idx=0)
    (dropout_in): Dropout(p=0.0, inplace=False)
    (dropout_out): Dropout(p=0.0, inplace=False)
    (lstm): LSTM(768, 512, batch_first=True)
    (pred_linear): Linear(in_features=512, out_features=35, bias=False)
    (loss): CrossEntropyLoss()
  )
), rootdict_emb_dim=320, rootdict_emb_num=2000, save_path='evaluation/probing/polarity/results/training/vqvae_7_2_probe/8513_instances/300epochs.pt', seq_to_no_pad='surface', task='surf2polar', trndata='model/vqvae/data/trmor2018.uniquesurfs.verbs.uniquerooted.trn.txt', trnsize=8513, tstdata='model/vqvae/data/trmor2018.uniquesurfs.verbs.seenroots.val.txt', tstsize=2757, valdata='model/vqvae/data/trmor2018.uniquesurfs.verbs.seenroots.val.txt', valsize=2757)
…
