VQVAE(
  (model): EncoderDecoder(
    (encoder): Encoder(
      (rnn): GRU(512, 256, batch_first=True, dropout=0.2, bidirectional=True)
    )
    (decoder): Decoder(
      (attention): BahdanauAttention(
        (key_layer): Linear(in_features=512, out_features=256, bias=False)
        (query_layer): Linear(in_features=256, out_features=256, bias=False)
        (energy_layer): Linear(in_features=256, out_features=1, bias=False)
      )
      (rnn): GRU(1024, 256, batch_first=True, dropout=0.2)
      (bridge): Linear(in_features=512, out_features=256, bias=True)
      (dropout_layer): Dropout(p=0.2, inplace=False)
      (pre_output_layer): Linear(in_features=1280, out_features=256, bias=False)
    )
    (src_embed): Embedding(39, 512)
    (trg_embed): Embedding(39, 512)
    (generator): Generator(
      (proj): Linear(in_features=256, out_features=39, bias=False)
    )
  )
  (multi_vq_layer): MultiVectorQuantizer(
    (embedding_1): Embedding(12, 128)
    (embedding_2): Embedding(12, 128)
    (embedding_3): Embedding(12, 128)
    (embedding_4): Embedding(12, 128)
  )
)beta:0.25
----- Parameters: -----
model.encoder.rnn.weight_ih_l0, torch.Size([768, 512]): True
model.encoder.rnn.weight_hh_l0, torch.Size([768, 256]): True
model.encoder.rnn.bias_ih_l0, torch.Size([768]): True
model.encoder.rnn.bias_hh_l0, torch.Size([768]): True
model.encoder.rnn.weight_ih_l0_reverse, torch.Size([768, 512]): True
model.encoder.rnn.weight_hh_l0_reverse, torch.Size([768, 256]): True
…
