…
Namespace(batchsize=64, beta=0.5, dec_dropout_in=0.5, dec_dropout_out=0.5, dec_nh=512, dec_nh_tmp=512, device='cuda', embedding_dim=512, enc_dropout_in=0.0, enc_dropout_out=0.0, enc_nh=512, epochs=200, fig_path='model/vqvae/results/training/25031_instances/discretelemma_bilstm_4x10_dec512_suffixd512/200epochs.png', incat=512, incat_tmp=512, lemmadict_emb_num=5000, log_path='model/vqvae/results/training/25031_instances/discretelemma_bilstm_4x10_dec512_suffixd512/200epochs.log', logger=<common.utils.Logger object at 0x7ff7ab2ec6d0>, lr=0.001, maxtrnsize=10000000, maxtstsize=10000, maxvalsize=10000, mname='vqvae', model=VQVAE(
  (encoder): VQVAE_Encoder(
    (embed): Embedding(36, 256)
    (lstm): LSTM(256, 512, batch_first=True, bidirectional=True)
    (dropout_in): Dropout(p=0.0, inplace=False)
  )
  (vq_layer_lemma): VectorQuantizer(
    (embedding): Embedding(5000, 512)
  )
  (ord_vq_layers): ModuleList(
    (0): VectorQuantizer(
      (embedding): Embedding(10, 128)
    )
    (1): VectorQuantizer(
      (embedding): Embedding(10, 128)
    )
    (2): VectorQuantizer(
      (embedding): Embedding(10, 128)
    )
    (3): VectorQuantizer(
      (embedding): Embedding(10, 128)
    )
  )
  (decoder): VQVAE_Decoder(
    (embed): Embedding(36, 256, padding_idx=0)
    (dropout_in): Dropout(p=0.5, inplace=False)
    (dropout_out): Dropout(p=0.5, inplace=False)
    (lstm): LSTM(768, 512, batch_first=True)
    (pred_linear): Linear(in_features=512, out_features=36, bias=False)
    (loss): CrossEntropyLoss()
  )
), model_prefix='discretelemma_bilstm_4x10_dec512_suffixd512/', modelname='model/vqvae/results/training/25031_instances/discretelemma_bilstm_4x10_dec512_suffixd512/', ni=256, num_dicts=5, num_dicts_tmp=5, nz=128, opt='Adam', orddict_emb_num=10, outcat=0, outcat_tmp=0, pretrained_model=VQVAE_AE(
  (encoder): VQVAE_Encoder(
    (embed): Embedding(36, 256)
    (lstm): LSTM(256, 512, batch_first=True, bidirectional=True)
    (dropout_in): Dropout(p=0.0, inplace=False)
  )
  (decoder): VQVAE_Decoder(
    (embed): Embedding(36, 256, padding_idx=0)
    (dropout_in): Dropout(p=0.5, inplace=False)
    (dropout_out): Dropout(p=0.5, inplace=False)
    (lstm): LSTM(256, 1024, batch_first=True)
    (pred_linear): Linear(in_features=1024, out_features=36, bias=False)
    (loss): CrossEntropyLoss()
  )
), save_path='model/vqvae/results/training/25031_instances/discretelemma_bilstm_4x10_dec512_suffixd512/200epochs.pt', seq_to_no_pad='surface', surf_vocab=<common.vocab.VocabEntry object at 0x7ff7aac97d50>, surface_vocab_file='data/sigmorphon2016/zhou_merged', task='vqvae', trndata='data/sigmorphon2016/zhou_merged', trnsize=25031, tstdata='data/sigmorphon2016/turkish-task3-dev', tstsize=25031, valdata='data/sigmorphon2016/turkish-task3-dev', valsize=1589)
…
