
number of params: 2652281 
Namespace(batchsize=128, dec_dropout_in=0.4, dec_nh=256, device='cuda', enc_dropout_in=0.0, enc_dropout_out=0.0, enc_nh=512, epochs=50, fig_path='model/msved/results/training/12798_instances/50epochs.png', kl_anneal=True, kl_start=0.1, log_path='model/msved/results/training/12798_instances/50epochs.log', logger=<common.utils.Logger object at 0x7f93675b7490>, lr=0.001, maxtrnsize=7000000, maxtstsize=10000, maxvalsize=10000, mname='msved', model=MSVED(
  (encoder): MSVED_Encoder(
    (embed): Embedding(36, 256)
    (gru): GRU(256, 512, batch_first=True)
    (dropout_in): Dropout(p=0.0, inplace=False)
    (linear): Linear(in_features=512, out_features=300, bias=False)
  )
  (decoder): MSVED_Decoder(
    (char_embed): Embedding(36, 300, padding_idx=0)
    (dropout_in): Dropout(p=0.4, inplace=False)
    (trans_linear): Linear(in_features=150, out_features=256, bias=False)
    (gru): GRU(650, 256, batch_first=True)
    (attn): Linear(in_features=706, out_features=11, bias=True)
    (attn_combine): Linear(in_features=650, out_features=650, bias=True)
    (pred_linear): Linear(in_features=256, out_features=36, bias=False)
    (loss): CrossEntropyLoss()
  )
  (z_to_dec): Linear(in_features=150, out_features=256, bias=True)
  (tag_to_dec): Linear(in_features=200, out_features=256, bias=True)
  (tag_embeddings): ModuleList(
    (0): Embedding(7, 200)
    (1): Embedding(3, 200)
    (2): Embedding(2, 200)
    (3): Embedding(2, 200)
    (4): Embedding(3, 200)
    (5): Embedding(4, 200)
    (6): Embedding(3, 200)
    (7): Embedding(4, 200)
    (8): Embedding(5, 200)
    (9): Embedding(2, 200)
    (10): Embedding(7, 200)
  )
  (classifiers): ModuleList(
    (0): Linear(in_features=512, out_features=7, bias=True)
    (1): Linear(in_features=512, out_features=3, bias=True)
    (2): Linear(in_features=512, out_features=2, bias=True)
    (3): Linear(in_features=512, out_features=2, bias=True)
    (4): Linear(in_features=512, out_features=3, bias=True)
    (5): Linear(in_features=512, out_features=4, bias=True)
    (6): Linear(in_features=512, out_features=3, bias=True)
    (7): Linear(in_features=512, out_features=4, bias=True)
    (8): Linear(in_features=512, out_features=5, bias=True)
    (9): Linear(in_features=512, out_features=2, bias=True)
    (10): Linear(in_features=512, out_features=7, bias=True)
  )
), modelname='model/msved/results/training/12798_instances/', ni=256, nz=150, opt='Adam', save_path='model/msved/results/training/12798_instances/50epochs.pt', seq_to_no_pad='surface', surface_vocab_file='data/sigmorphon2016/turkish-task3-train', task='msved', trndata='data/sigmorphon2016/turkish-task3-train', trnsize=12798, tstdata='data/sigmorphon2016/turkish-task3-dev', tstsize=12798, valdata='data/sigmorphon2016/turkish-task3-dev', valsize=1600, warm_up=10)
…
