…
Namespace(batchsize=128, beta=0.1, dec_dropout_in=0.0, dec_dropout_out=0.0, dec_nh=512, dec_nh_tmp=512, device='cuda', embedding_dim=660, enc_dropout_in=0.0, enc_dropout_out=0.0, enc_nh=660, epochs=301, fig_path='evaluation/probing/sig2016/results/turkish/7963_instances/301epochs.png', incat=660, incat_tmp=660, kl_max=0.2, lang='turkish', log_path='evaluation/probing/sig2016/results/turkish/7963_instances/301epochs.log', logger=<common.utils.Logger object at 0x7f04b01e7f10>, lr=0.001, lxtgtsize=7963, maxtrnsize=1000000, maxtstsize=1000000000000, maxusize=1000000, maxvalsize=1000, mname='vqvae', model=VQVAE(
  (encoder): VQVAE_Encoder(
    (embed): Embedding(36, 256)
    (lstm): LSTM(256, 660, batch_first=True, bidirectional=True)
    (dropout_in): Dropout(p=0.0, inplace=False)
    (linear): Linear(in_features=660, out_features=256, bias=False)
  )
  (z_to_dec): Linear(in_features=128, out_features=512, bias=True)
  (ord_vq_layers): ModuleList(
    (0): VectorQuantizer(
      (embedding): Embedding(7, 60)
    )
    (1): VectorQuantizer(
      (embedding): Embedding(3, 60)
    )
    (2): VectorQuantizer(
      (embedding): Embedding(2, 60)
    )
    (3): VectorQuantizer(
      (embedding): Embedding(2, 60)
    )
    (4): VectorQuantizer(
      (embedding): Embedding(3, 60)
    )
    (5): VectorQuantizer(
      (embedding): Embedding(4, 60)
    )
    (6): VectorQuantizer(
      (embedding): Embedding(3, 60)
    )
    (7): VectorQuantizer(
      (embedding): Embedding(4, 60)
    )
    (8): VectorQuantizer(
      (embedding): Embedding(5, 60)
    )
    (9): VectorQuantizer(
      (embedding): Embedding(2, 60)
    )
    (10): VectorQuantizer(
      (embedding): Embedding(7, 60)
    )
  )
  (decoder): VQVAE_Decoder(
    (embed): Embedding(36, 256, padding_idx=0)
    (dropout_in): Dropout(p=0.0, inplace=False)
    (dropout_out): Dropout(p=0.0, inplace=False)
    (lstm): LSTM(916, 512, batch_first=True)
    (pred_linear): Linear(in_features=512, out_features=36, bias=False)
    (loss): CrossEntropyLoss()
  )
), modelname='evaluation/probing/sig2016/results/turkish/7963_instances/', nh=660, ni=256, num_dicts=11, num_dicts_tmp=11, nz=128, opt='Adam', orddict_emb_num=1, outcat=0, outcat_tmp=0, probe=Probe(
  (linear): Linear(in_features=660, out_features=7, bias=False)
  (loss): CrossEntropyLoss()
), save_path='evaluation/probing/sig2016/results/turkish/7963_instances/301epochs.pt', seq_to_no_pad='surface', surf_vocab=<common.vocab.VocabEntry object at 0x7f043e208950>, tag_key_id=10, tag_vocabs={'case': {'<pad>': 0, 'NOM': 1, 'GEN': 2, 'ESS': 3, 'DAT': 4, 'ACC': 5, 'ABL': 6}, 'polar': {'<pad>': 0, 'POS': 1, 'NEG': 2},
…
