…
Namespace(batchsize=128, combined_vocab=<common.vocab.VocabEntry object at 0x7fecfd213e50>, dec_dropout_in=0.0, dec_dropout_out=0.0, dec_nh=1024, device='cuda', enc_dropout_in=0.0, enc_dropout_out=0.0, enc_nh=1024, epochs=300, fig_path='evaluation/probing/root_concept/results/training/ae_1_probe/3487_instances/300epochs.png', log_path='evaluation/probing/root_concept/results/training/ae_1_probe/3487_instances/300epochs.log', logger=<common.utils.Logger object at 0x7fecfd806f10>, lr=0.01, maxtrnsize=57769, maxtstsize=10000, maxvalsize=10000, mname='ae_1_probe', model=AE_Probe(
  (encoder): AE_Encoder(
    (embed): Embedding(39, 512)
    (lstm): LSTM(512, 1024, batch_first=True)
    (dropout_in): Dropout(p=0.0, inplace=False)
    (linear): Linear(in_features=1024, out_features=32, bias=False)
  )
  (linear): Linear(in_features=1024, out_features=704, bias=False)
  (loss): CrossEntropyLoss()
), model_2=AE_Probe(
  (encoder): AE_Encoder(
    (embed): Embedding(39, 512)
    (lstm): LSTM(512, 1024, batch_first=True)
    (dropout_in): Dropout(p=0.0, inplace=False)
    (linear): Linear(in_features=1024, out_features=32, bias=False)
  )
  (linear): Linear(in_features=1024, out_features=60, bias=False)
  (loss): CrossEntropyLoss()
), modelname='evaluation/probing/root_concept/results/training/ae_1_probe/3487_instances/', nh=1024, ni=512, nz=32, opt='Adam', pretrained_model=AE(
  (encoder): AE_Encoder(
    (embed): Embedding(39, 512)
    (lstm): LSTM(512, 1024, batch_first=True)
    (dropout_in): Dropout(p=0.0, inplace=False)
    (linear): Linear(in_features=1024, out_features=32, bias=False)
  )
  (decoder): AE_Decoder(
    (embed): Embedding(39, 512, padding_idx=0)
    (dropout_in): Dropout(p=0.0, inplace=False)
    (dropout_out): Dropout(p=0.0, inplace=False)
    (trans_linear): Linear(in_features=32, out_features=1024, bias=False)
    (lstm): LSTM(544, 1024, batch_first=True)
    (pred_linear): Linear(in_features=1024, out_features=39, bias=False)
    (loss): CrossEntropyLoss()
  )
), save_path='evaluation/probing/root_concept/results/training/ae_1_probe/3487_instances/300epochs.pt', seq_to_no_pad='surface', task='surf2root_concept', trndata='evaluation/probing/root_concept/data/sosimple.new.trn.combined.txt', trnsize=3487, tstdata='evaluation/probing/root_concept/data/sosimple.new.seenroots.val.combined.txt', tstsize=209, valdata='evaluation/probing/root_concept/data/sosimple.new.seenroots.val.combined.txt', valsize=209, vocab=(<common.vocab.VocabEntry object at 0x7fecfd6cd250>, 'evaluation/probing/combined/results/training/ae_1_probe/3487_instances/32dim/combined_vocab.json'))
…
