
number of params: 4866560 
Namespace(batchsize=128, beta=0.25, dec_dropout_in=0.2, dec_dropout_out=0.3, dec_nh=512, device='cuda', embedding_dim=512, enc_dropout_in=0.0, enc_dropout_out=0.0, enc_nh=512, epochs=220, fig_path='model/vqvae/results/training/3487_instances/220epochs.png', log_path='model/vqvae/results/training/3487_instances/220epochs.log', logger=<common.utils.Logger object at 0x7ff7f8039ed0>, lr=0.001, maxtrnsize=100000, maxtstsize=10000, maxvalsize=10000, mname='vqvae', model=VQVAE(
  (encoder): VQVAE_Encoder(
    (embed): Embedding(32, 256)
    (lstm): LSTM(256, 512, batch_first=True)
    (dropout_in): Dropout(p=0.0, inplace=False)
  )
  (vq_layer): VectorQuantizer(
    (embedding): Embedding(704, 512)
  )
  (linear_2): Linear(in_features=512, out_features=64, bias=True)
  (linear_3): Linear(in_features=512, out_features=64, bias=True)
  (linear_4): Linear(in_features=512, out_features=64, bias=True)
  (linear_5): Linear(in_features=512, out_features=64, bias=True)
  (linear_6): Linear(in_features=512, out_features=64, bias=True)
  (linear_7): Linear(in_features=512, out_features=64, bias=True)
  (linear_8): Linear(in_features=512, out_features=64, bias=True)
  (linear_9): Linear(in_features=512, out_features=64, bias=True)
  (vq_layer_2): VectorQuantizer(
    (embedding): Embedding(16, 64)
  )
  (vq_layer_3): VectorQuantizer(
    (embedding): Embedding(16, 64)
  )
  (vq_layer_4): VectorQuantizer(
    (embedding): Embedding(16, 64)
  )
  (vq_layer_5): VectorQuantizer(
    (embedding): Embedding(16, 64)
  )
  (vq_layer_6): VectorQuantizer(
    (embedding): Embedding(16, 64)
  )
  (vq_layer_7): VectorQuantizer(
    (embedding): Embedding(16, 64)
  )
  (vq_layer_8): VectorQuantizer(
    (embedding): Embedding(16, 64)
  )
  (vq_layer_9): VectorQuantizer(
    (embedding): Embedding(16, 64)
  )
  (decoder): VQVAE_Decoder(
    (embed): Embedding(32, 256, padding_idx=0)
    (dropout_in): Dropout(p=0.2, inplace=False)
    (dropout_out): Dropout(p=0.3, inplace=False)
    (lstm): LSTM(768, 512, batch_first=True)
    (pred_linear): Linear(in_features=512, out_features=32, bias=False)
    (loss): CrossEntropyLoss()
  )
), modelname='model/vqvae/results/training/3487_instances/', ni=256, num_embeddings=704, nz=512, opt='Adam', pretrained_model=VQVAE(
  (encoder): VQVAE_Encoder(
    (embed): Embedding(32, 256)
    (lstm): LSTM(256, 512, batch_first=True)
    (dropout_in): Dropout(p=0.0, inplace=False)
  )
  (vq_layer): VectorQuantizer(
    (embedding): None
  )
  (linear_2): Linear(in_features=512, out_features=64, bias=True)
  (linear_3): Linear(in_features=512, out_features=64, bias=True)
  (linear_4): Linear(in_features=512, out_features=64, bias=True)
  (linear_5): Linear(in_features=512, out_features=64, bias=True)
  (linear_6): Linear(in_features=512, out_features=64, bias=True)
  (linear_7): Linear(in_features=512, out_features=64, bias=True)
  (linear_8): Linear(in_features=512, out_features=64, bias=True)
  (linear_9): Linear(in_features=512, out_features=64, bias=True)
  (vq_layer_2): VectorQuantizer(
    (embedding): None
  )
  (vq_layer_3): VectorQuantizer(
    (embedding): Embedding(16, 64)
  )
  (vq_layer_4): VectorQuantizer(
    (embedding): Embedding(16, 64)
  )
  (vq_layer_5): VectorQuantizer(
    (embedding): Embedding(16, 64)
  )
  (vq_layer_6): VectorQuantizer(
    (embedding): Embedding(16, 64)
  )
  (vq_layer_7): VectorQuantizer(
    (embedding): Embedding(16, 64)
  )
  (vq_layer_8): VectorQuantizer(
    (embedding): Embedding(16, 64)
  )
  (vq_layer_9): VectorQuantizer(
    (embedding): Embedding(16, 64)
  )
  (decoder): VQVAE_Decoder(
    (embed): Embedding(32, 256, padding_idx=0)
    (dropout_in): Dropout(p=0.2, inplace=False)
    (dropout_out): Dropout(p=0.3, inplace=False)
    (lstm): LSTM(768, 512, batch_first=True)
    (pred_linear): Linear(in_features=512, out_features=32, bias=False)
    (loss): CrossEntropyLoss()
  )
), save_path='model/vqvae/results/training/3487_instances/220epochs.pt', seq_to_no_pad='surface', surf_vocab=<common.vocab.VocabEntry object at 0x7ff7eec8a890>, surface_vocab_file='model/vqvae/data/sosimple.new.trn.combined.txt', task='vqvae', trndata='model/vqvae/data/sosimple.new.trn.combined.txt', trnsize=3487, tstdata='model/vqvae/data/sosimple.new.seenroots.val.txt', tstsize=3487, valdata='model/vqvae/data/sosimple.new.seenroots.val.txt', valsize=209)
…
