
number of params: 6541312 
Namespace(batchsize=128, beta=0.25, dec_dropout_in=0.3, dec_dropout_out=0.2, dec_nh=512, device='cuda', embedding_dim=512, enc_dropout_in=0.0, enc_dropout_out=0.0, enc_nh=512, epochs=150, fig_path='model/vqvae/results/training/3487_instances/150epochs.png', log_path='model/vqvae/results/training/3487_instances/150epochs.log', logger=<common.utils.Logger object at 0x7fadf338ffd0>, lr=0.001, maxtrnsize=100000, maxtstsize=10000, maxvalsize=10000, mname='vqvae', model=VQVAE(
  (encoder): VQVAE_Encoder(
    (embed): Embedding(32, 256)
    (lstm): LSTM(256, 512, batch_first=True)
    (dropout_in): Dropout(p=0.0, inplace=False)
  )
  (linear_root): Linear(in_features=512, out_features=512, bias=True)
  (vq_layer_root): VectorQuantizer(
    (embedding): Embedding(50, 512)
  )
  (ord_linears): ModuleList(
    (0): Linear(in_features=512, out_features=512, bias=True)
    (1): Linear(in_features=512, out_features=512, bias=True)
    (2): Linear(in_features=512, out_features=512, bias=True)
    (3): Linear(in_features=512, out_features=512, bias=True)
    (4): Linear(in_features=512, out_features=512, bias=True)
    (5): Linear(in_features=512, out_features=512, bias=True)
    (6): Linear(in_features=512, out_features=512, bias=True)
  )
  (ord_vq_layers): ModuleList(
    (0): VectorQuantizer(
      (embedding): Embedding(50, 512)
    )
    (1): VectorQuantizer(
      (embedding): Embedding(50, 512)
    )
    (2): VectorQuantizer(
      (embedding): Embedding(50, 512)
    )
    (3): VectorQuantizer(
      (embedding): Embedding(50, 512)
    )
    (4): VectorQuantizer(
      (embedding): Embedding(50, 512)
    )
    (5): VectorQuantizer(
      (embedding): Embedding(50, 512)
    )
    (6): VectorQuantizer(
      (embedding): Embedding(50, 512)
    )
  )
  (decoder): VQVAE_Decoder(
    (embed): Embedding(32, 256, padding_idx=0)
    (dropout_in): Dropout(p=0.3, inplace=False)
    (dropout_out): Dropout(p=0.2, inplace=False)
    (lstm): LSTM(768, 512, batch_first=True)
    (pred_linear): Linear(in_features=512, out_features=32, bias=False)
    (loss): CrossEntropyLoss()
  )
), modelname='model/vqvae/results/training/3487_instances/', ni=256, num_dicts=8, nz=512, opt='Adam', orddict_emb_num=50, pretrained_model=VQVAE(
  (encoder): VQVAE_Encoder(
    (embed): Embedding(32, 256)
    (lstm): LSTM(256, 512, batch_first=True)
    (dropout_in): Dropout(p=0.0, inplace=False)
  )
  (linear_root): Linear(in_features=512, out_features=512, bias=True)
  (vq_layer_root): VectorQuantizer(
    (embedding): Embedding(50, 512)
  )
  (ord_linears): ModuleList(
    (0): Linear(in_features=512, out_features=0, bias=True)
    (1): Linear(in_features=512, out_features=0, bias=True)
    (2): Linear(in_features=512, out_features=0, bias=True)
    (3): Linear(in_features=512, out_features=0, bias=True)
    (4): Linear(in_features=512, out_features=0, bias=True)
    (5): Linear(in_features=512, out_features=0, bias=True)
    (6): Linear(in_features=512, out_features=0, bias=True)
  )
  (ord_vq_layers): ModuleList(
    (0): VectorQuantizer(
      (embedding): Embedding(50, 0)
    )
    (1): VectorQuantizer(
      (embedding): Embedding(50, 0)
    )
    (2): VectorQuantizer(
      (embedding): Embedding(50, 0)
    )
    (3): VectorQuantizer(
      (embedding): Embedding(50, 0)
    )
    (4): VectorQuantizer(
      (embedding): Embedding(50, 0)
    )
    (5): VectorQuantizer(
      (embedding): Embedding(50, 0)
    )
    (6): VectorQuantizer(
      (embedding): Embedding(50, 0)
    )
  )
  (decoder): VQVAE_Decoder(
    (embed): Embedding(32, 256, padding_idx=0)
    (dropout_in): Dropout(p=0.3, inplace=False)
    (dropout_out): Dropout(p=0.2, inplace=False)
    (lstm): LSTM(768, 512, batch_first=True)
    (pred_linear): Linear(in_features=512, out_features=32, bias=False)
    (loss): CrossEntropyLoss()
  )
), rootdict_emb_dim=512, rootdict_emb_num=50, save_path='model/vqvae/results/training/3487_instances/150epochs.pt', seq_to_no_pad='surface', surf_vocab=<common.vocab.VocabEntry object at 0x7fadf344ec50>, surface_vocab_file='model/vqvae/data/sosimple.new.trn.combined.txt', task='vqvae', trndata='model/vqvae/data/sosimple.new.trn.combined.txt', trnsize=3487, tstdata='model/vqvae/data/sosimple.new.seenroots.val.txt', tstsize=3487, valdata='model/vqvae/data/sosimple.new.seenroots.val.txt', valsize=209)
…
