
number of params: 4589952 
Namespace(batchsize=128, beta=0.25, dec_dropout_in=0.0, dec_dropout_out=0.0, dec_nh=512, device='cuda', embedding_dim=128, enc_dropout_in=0.0, enc_dropout_out=0.0, enc_nh=512, epochs=200, fig_path='model/vqvae/results/training/3487_instances/200epochs.png', log_path='model/vqvae/results/training/3487_instances/200epochs.log', logger=<common.utils.Logger object at 0x7f29a2d21450>, lr=0.001, maxtrnsize=10000, maxtstsize=100, maxvalsize=1000, mname='vqvae', model=VQVAE(
  (encoder): VQVAE_Encoder(
    (embed): Embedding(32, 256)
    (lstm): LSTM(256, 512, batch_first=True)
    (dropout_in): Dropout(p=0.0, inplace=False)
  )
  (vq_layer): VectorQuantizer(
    (embedding): Embedding(710, 128)
  )
  (linear): Linear(in_features=512, out_features=512, bias=False)
  (vq_layer_2): VectorQuantizer(
    (embedding): Embedding(5, 128)
  )
  (vq_layer_3): VectorQuantizer(
    (embedding): Embedding(6, 128)
  )
  (vq_layer_4): VectorQuantizer(
    (embedding): Embedding(2, 128)
  )
  (decoder): VQVAE_Decoder(
    (embed): Embedding(32, 256, padding_idx=0)
    (dropout_in): Dropout(p=0.0, inplace=False)
    (dropout_out): Dropout(p=0.0, inplace=False)
    (lstm): LSTM(768, 512, batch_first=True)
    (pred_linear): Linear(in_features=512, out_features=32, bias=False)
    (loss): CrossEntropyLoss()
  )
), modelname='model/vqvae/results/training/3487_instances/', ni=256, num_embeddings=710, nz=512, opt='Adam', pretrained_model=VQVAE(
  (encoder): VQVAE_Encoder(
    (embed): Embedding(32, 256)
    (lstm): LSTM(256, 512, batch_first=True)
    (dropout_in): Dropout(p=0.0, inplace=False)
  )
  (vq_layer): VectorQuantizer(
    (embedding): Embedding(3487, 512)
  )
  (decoder): VQVAE_Decoder(
    (embed): Embedding(32, 256, padding_idx=0)
    (dropout_in): Dropout(p=0.0, inplace=False)
    (dropout_out): Dropout(p=0.0, inplace=False)
    (lstm): LSTM(768, 512, batch_first=True)
    (pred_linear): Linear(in_features=512, out_features=32, bias=False)
    (loss): CrossEntropyLoss()
  )
), save_path='model/vqvae/results/training/3487_instances/200epochs.pt', seq_to_no_pad='surface', surf_vocab=<common.vocab.VocabEntry object at 0x7f29a2c62190>, surface_vocab_file='model/vqvae/data/sosimple.new.trn.combined.txt', task='vqvae', trndata='model/vqvae/data/sosimple.new.trn.combined.txt', trnsize=3487, tstdata='model/vqvae/data/sosimple.new.seenroots.val.txt', tstsize=3487, valdata='model/vqvae/data/sosimple.new.seenroots.val.txt', valsize=209)
…
